assets/classifier.tflite (tflite, 4504 bytes, 4 tensors)

sequential/dense_1/BiasAdd/ReadVariableOp f4 [4]
000000 5a 24 97 3d 42 84 b9 3f 4c 41 aa bf 09 aa 45 be
       0.073799804 1.4493487 -1.3301177 -0.19303145

sequential/dense/BiasAdd/ReadVariableOp f4 [100]
000000 3a 55 06 bf d4 cd 05 bf 56 0c 84 3d d9 78 cb be
       -0.52473795 -0.52267194 0.064476654 -0.39740637
000010 37 41 8c 3e 63 88 c1 be 12 b4 d1 bd 3e 50 72 3e
       0.27393505 -0.37799367 -0.10239424 0.23663422
000020 ad 9a 63 bd 54 43 aa 3e 71 4a 8e 3e fe 31 cb 3f
       -0.055567432 0.33254492 0.2779117 1.5874631
000030 3d ad b5 3d 13 a8 8a 3e 75 86 1d 3e 76 ff 8d 3f
       0.08870933 0.27081355 0.15383323 1.1093585
000040 a7 41 7b 3f 20 9e 32 bf 5b cd b4 bd 9c 3e 99 bd
       0.9814705 -0.6977253 -0.08828231 -0.07482645
000050 ce 66 fd 3e ab 8b 47 3e 57 4a d4 3e 2f cf 31 3f
       0.49492496 0.19486873 0.41462967 0.6945676
000060 ef 5b 79 3f 71 ef 98 3e 08 e1 cf be 5a 9b 45 3f
       0.97405905 0.2987018 -0.40601373 0.7719017
000070 e3 02 8e 3d a5 0f 87 3e e9 d7 3c bf ea 8d 12 3f
       0.06934144 0.26379123 -0.7376695 0.57247794
000080 b7 4b 22 3e 1b 11 e2 be 82 2e d8 bd 27 fc df be
       0.15849195 -0.44153675 -0.10555746 -0.43747064
000090 44 17 09 3f df 6b 4a bd 27 c7 c6 3e f0 0c 34 bf
       0.53551126 -0.04941928 0.38823816 -0.7033224
0000a0 24 49 dd be 1e 55 58 bf ff 68 4f bd 97 59 1b bf
       -0.43219864 -0.8450488 -0.05063724 -0.6068358
0000b0 e6 f4 31 3e c1 ad c3 3b eb ee 50 be ba 39 1c 3f
       0.17378578 0.005971641 -0.2040364 0.61025584
0000c0 cb 2c 65 be 8d 2b c9 bd c4 3c 4b 3f b0 6a c9 3d
       -0.22380368 -0.0982276 0.79389596 0.09834802
0000d0 7d 59 30 be ad 6c fe be a5 23 76 3f c0 93 cd 3e
       -0.17221637 -0.49692288 0.9614814 0.40151787
0000e0 68 d7 2f 3e c3 0a 19 3e 4c 09 93 bd 75 ca 08 be
       0.17172015 0.14945512 -0.071795076 -0.13358481
0000f0 a9 8c 60 3e 39 97 a2 bd 50 53 0b 3f 45 bc a4 3c
       0.21928658 -0.07939 0.54424 0.020109305
000100 80 47 17 3e c2 36 73 bd 78 2d 1b be 74 2a 35 be
       0.14773369 -0.059378393 -0.15154064 -0.17691976
000110 bc 15 a2 3e ab d8 ae 3e 73 ad b4 bd c0 47 cf 3e
       0.31657207 0.3414968 -0.08822145 0.40484428
000120 15 a2 99 3d 72 e0 df 3d 66 54 08 3e a6 7f 54 3f
       0.07501618 0.109314814 0.13313445 0.83007276
000130 c7 14 d1 bd b0 fd 8d bd 78 9e 70 3e 4c 10 0d 3c
       -0.10209041 -0.06933153 0.23497951 0.0086098425
000140 db 75 2d 3f 6f 36 eb be 1b 41 ef ba 71 be f5 3d
       0.6775796 -0.45939967 -0.0018253656 0.119992144
000150 86 63 9f bb 30 07 99 be 29 12 8a 3d c2 86 0e 3e
       -0.004864159 -0.29888296 0.06741745 0.13918594
000160 7f 28 d9 be 98 8b 42 3f 5e d7 80 3e 93 61 93 be
       -0.4241371 0.75994253 0.25164312 -0.2878538
000170 59 c9 eb bd fa 0d 3d bc 37 33 23 3f 4c b4 40 bf
       -0.115130134 -0.011538977 0.6375002 -0.7527511
000180 0d 92 61 bb 93 34 b3 3d 1d c9 72 3f 21 bc 29 3c
       -0.0034419328 0.08750262 0.94838125 0.010359795

sequential/dense/MatMul f4 [100, 2]
000000 56 a5 85 bf 1d 42 95 3d 10 46 86 bf b5 e1 f7 3d
       -1.0441082 0.07288001 -1.0490131 0.12103597
000010 f8 d2 36 3f 00 16 65 bc 3d a1 20 bf ea b3 a0 bd
       0.7141566 -0.013982296 -0.6274603 -0.07846816
000020 9e 27 cf 3f 97 50 c0 3e 57 b2 30 bf d4 b9 42 3d
       1.6183965 0.37561485 -0.69022125 0.0475405
000030 cf 33 1d be 49 67 3d 3e 3c 0f 36 3f 8f 36 f0 bd
       -0.15351795 0.18496431 0.71116996 -0.11729156
000040 57 44 e5 3b 07 85 89 3d af 65 14 be 2f 2a 35 be
       0.006996672 0.06714826 -0.14491914 -0.17691873
000050 31 6a a6 3f 4e 45 35 3d 85 d8 c7 3f 3d 5a 49 3e
       1.3001157 0.044255547 1.5612952 0.1966333
000060 e1 46 06 3f 9c 98 da 3e 70 cc fd 3f d6 fa 68 3e
       0.524519 0.42694557 1.9828014 0.22751936
000070 ff ba b7 3f d3 09 4c 3d 2d db 8c 3f fd b8 31 3e
       1.4353942 0.049814057 1.1004387 0.17355724
000080 5a cf 9f be 9a 9f bf 3e e9 5b 9b bf 19 7b d4 3d
       -0.31212884 0.37426454 -1.2137424 0.103750415
000090 66 11 11 bc c9 a1 9c 3d 5d 5b ec bd 42 e0 2e 3e
       -0.008854246 0.076480456 -0.11540864 0.17077735
0000a0 20 0a 4b bd 8a 99 fc be 9b ce 15 3f 0a 0b c6 bd
       -0.049570203 -0.4933589 0.5851838 -0.09670074
0000b0 d7 09 88 be 30 ef 7e 3e e7 b0 44 bd 54 59 ec 3e
       -0.26570007 0.2489593 -0.04802027 0.46161902
0000c0 60 b4 6b 3f 1d a7 11 3e 35 b7 50 be 24 e4 86 be
       0.92072105 0.14223905 -0.20382388 -0.26345932
0000d0 cc f1 0b bf 5d ce 16 bf 39 70 ae be 2c 75 c0 3e
       -0.5466583 -0.58908635 -0.34069994 0.37589395
0000e0 4d e1 5c 3f df df a5 3d 02 09 b2 3f 5a 11 0e be
       0.8628128 0.08099341 1.3908999 -0.13873807
0000f0 35 d1 9f bf bb b1 9b 3d 06 9a 10 be 9b c6 88 3e
       -1.248572 0.07602259 -0.14121255 0.26714024
000100 23 07 68 3f d7 04 5c 3e bc 95 43 bf a1 b6 81 3d
       0.9063589 0.21486221 -0.7640035 0.06333662
000110 02 1b a5 3b 47 a6 fd 3d b7 83 66 bf 0c c7 10 3e
       0.00503862 0.123852305 -0.9004473 0.1413843
000120 d4 d2 17 3f 20 2a 36 bd 59 f3 99 bd 86 eb 43 3e
       0.59306073 -0.044473767 -0.07517118 0.19132814
000130 1f 64 ef 3e 38 a9 ac bd f2 1d b9 bf 0f 70 32 3e
       0.46756074 -0.084307134 -1.4462264 0.1742556
000140 e6 42 4a bf 6b b7 65 3d 9e b2 c4 bf ab 3b 66 3d
       -0.7900833 0.056083124 -1.536701 0.056209248
000150 c0 95 6d bc ee eb c4 3d 4d f1 6f bf 7d b4 d9 bb
       -0.014501035 0.096153125 -0.9372757 -0.0066438303
000160 d3 02 96 3f ea 5d 9c bd e9 03 49 3e cd f1 81 3d
       1.1719612 -0.076351 0.19630398 0.06344948
000170 38 67 14 bf 48 40 91 be 59 07 9a be 52 15 59 3e
       -0.5797 -0.28369355 -0.3008373 0.2119954
000180 58 a5 2a bf b0 cd d0 3d ad c7 f6 be 0c 7e 02 bf
       -0.66658545 0.10195482 -0.48199216 -0.5097358
000190 39 bc 28 be 4d 03 78 3e 8e 15 78 3f db ce ce bc
       -0.16478051 0.24220009 0.9690789 -0.02524512
0001a0 8a 62 0f 3d 8e d6 a7 be 11 5e 45 bf 88 31 30 3b
       0.035006084 -0.3278088 -0.7709666 0.0026884992
0001b0 3e 51 27 bd 6f 01 1a 3f 9d 3d 5c be ac f0 90 be
       -0.040848963 0.6015844 -0.21507879 -0.28308618
0001c0 37 82 c0 bd 03 4b 58 3e 1d 8e 26 3f ad 72 39 3e
       -0.093998365 0.21122365 0.650606 0.18110152
0001d0 a6 f5 72 bd a1 7a e3 3d f7 3b 83 be 11 09 0c 3d
       -0.0593163 0.11107374 -0.25631687 0.034188334
0001e0 d5 c7 c9 3d b2 3a 6d 3e 12 cd ab 3d 3d c4 bf 3b
       0.09852568 0.23166922 0.083887234 0.005852251
0001f0 e8 5d 13 be d4 9e 46 3e 28 50 93 3e b9 16 a5 3e
       -0.14391291 0.19396526 0.28772092 0.322439
000200 39 ce 82 3f d8 a9 ba 3d bb ae 90 3e 32 06 79 be
       1.0219184 0.091144264 0.2825831 -0.2431877
000210 70 d6 39 bc d8 4f 6c be 85 50 14 bf 39 dd 34 be
       -0.01134263 -0.23077333 -0.57935363 -0.17662515
000220 58 9c 9f 3e 72 38 fb bc 69 20 4f be 8b 2f 28 bd
       0.31173968 -0.030666564 -0.20227207 -0.041060966
000230 15 c6 8b 3d 2a 18 ab 3d 96 93 cb 3e 8a 3f 46 3d
       0.068248905 0.08354218 0.39761037 0.04840044
000240 a4 bf 3f 3f 00 5d b4 3e a0 bc 2a 3f e2 5f 98 3d
       0.74901795 0.35227203 0.6669407 0.07440163
000250 e2 ec 81 3f 49 84 86 3d b7 d0 6a be a3 cf 86 3e
       1.0150416 0.065682 -0.22931181 0.2633029
000260 7c 24 d8 3d dd df 99 3d ba ed 6a 3d 75 4b e9 bc
       0.10553834 0.07513402 0.05735562 -0.028478364
000270 37 0d 92 be c7 f8 65 be d8 52 67 3e 0b 47 8a 3e
       -0.28525707 -0.22458182 0.22590196 0.27007326
000280 a9 ab 83 be 25 80 d3 3e 7d 3f d2 be 76 8e 7a bd
       -0.25716904 0.41308704 -0.41064063 -0.061171018
000290 2d f1 92 3e 4a 1e 87 be d6 95 f0 3e 4d 2b 10 3d
       0.28699628 -0.26390296 0.46989316 0.035197545
0002a0 c4 7a 93 3e a8 55 a8 3e 77 ad 26 bf 37 b8 e8 3d
       0.288046 0.3287785 -0.65108436 0.11363261
0002b0 77 7a 0d 3f f5 ca dd 3d 39 20 60 3f 7f 14 b0 3d
       0.5526499 0.108297266 0.8754917 0.08597659
0002c0 d3 d1 ad be 89 37 d1 bc de 77 a1 be f2 38 23 3e
       -0.33949146 -0.025539177 -0.31536764 0.15939692
0002d0 8e a0 12 3f c8 46 7b 3e 9b b8 ba bc 7f 11 e1 be
       0.57276237 0.2453872 -0.022793105 -0.4395866
0002e0 1e 8b 0a be 1c 43 41 3e db a9 ae 3e eb ab 46 be
       -0.13529631 0.18873256 0.34113964 -0.19401519
0002f0 98 63 7a be 6b f8 8a 3e bc 0b 9c bf 48 97 0c 3b
       -0.24452055 0.27142653 -1.2191081 0.0021452475
000300 90 10 56 bd 05 5f c7 3d 53 10 24 3f 6f 31 b9 bb
       -0.05226189 0.097349204 0.6408741 -0.005651645
000310 3a 45 b8 bd 20 85 cb 3e 24 64 f3 3d ea 4c 20 be
       -0.08997579 0.39750004 0.11884335 -0.1565434

sequential/dense_1/MatMul f4 [4, 100]
000000 f4 e1 11 3e b7 d6 f2 3b 89 47 2c 3e 04 7a d5 3d
       0.1424635 0.00741085 0.16824163 0.10423663
000010 38 77 a3 be 29 22 60 3d 83 ed 3d 3d 17 a7 26 be
       -0.31926894 0.054720078 0.046369087 -0.16274677
000020 f6 19 48 3e c9 e7 8f 3e e3 c5 a7 be 75 5b ee bf
       0.19541153 0.28106526 -0.32768163 -1.862166
000030 5e bc 5a be ac c4 db be eb ce 14 3e 67 eb a1 bf
       -0.21360919 -0.42923486 0.14532058 -1.2649964
000040 8a 44 1e 3f a7 e6 53 be 2a 1e 33 be 36 c1 55 bd
       0.6182333 -0.20693456 -0.17491975 -0.052186213
000050 f3 19 15 3e 26 c5 e1 bd aa 96 e4 3e 91 d1 c8 3d
       0.1456068 -0.11023931 0.44646198 0.098055966
000060 0f 1c 8c bf 63 f9 8d 3e ff 31 75 bd 3a dd 14 3f
       -1.0946063 0.2772933 -0.059862133 0.58150065
000070 3c 33 99 3c 72 05 07 3e 78 79 21 be b2 72 86 3d
       0.018701188 0.13185671 -0.15768993 0.06564845
000080 c1 4d 2f bc 93 15 17 be f9 54 98 bd 81 30 45 3e
       -0.01069969 -0.14754324 -0.07438082 0.19256784
000090 83 f1 0f bf d7 3b 4b bd c9 65 f6 be ea 9d 18 3e
       -0.5622789 -0.049617615 -0.4812453 0.1490399
0000a0 01 aa 7d bd c8 e3 dc 3d de c7 d3 bd 7f b1 1f be
       -0.061929706 0.10785633 -0.10340856 -0.15595053
0000b0 b4 13 33 bd dc 38 45 3e 0c cd 1f 3d 0f 8c 92 3e
       -0.043719962 0.19259971 0.039013907 0.2862248
0000c0 c0 76 64 3e bb 9c 09 3e 76 f5 aa 3e 40 4d b1 3d
       0.22310925 0.13438694 0.33390397 0.086573124
0000d0 ea 2a 0c be d1 48 8b be 8e 4f 46 3e d9 d6 b5 3d
       -0.13688245 -0.27203992 0.19366285 0.088788696
0000e0 4e 3d 0e bb 57 42 90 3d 7e 14 e8 bd 6e 64 06 3e
       -0.002170402 0.07043903 -0.113320336 0.13124248
0000f0 11 f3 12 be ae 2f cc bd c9 d4 ac 3e ab c1 05 3e
       -0.14350535 -0.09970032 0.33756092 0.1306216
000100 e0 47 11 be f5 24 a6 3d 8e bc 18 be 82 76 10 3e
       -0.14187574 0.08112518 -0.14915678 0.14107707
000110 a6 70 b1 be 3a 52 f6 3d 4d 58 c9 bd c2 81 1c bf
       -0.34656256 0.12027402 -0.09831295 -0.61135495
000120 9f 9d d9 bd f0 c5 58 3d 30 85 c0 bd 7d 9f a5 3e
       -0.10625767 0.052923143 -0.094004035 0.32348242
000130 92 39 64 bc df 4a 2f 3e fa 57 b2 3e 45 45 fa 3d
       -0.013929741 0.17118405 0.34832746 0.12220243
000140 2a f2 f3 3e 14 01 88 be a4 86 9f 3d 4e 6a 55 bd
       0.47645694 -0.26563323 0.077893525 -0.052103333
000150 70 da 03 bd 35 66 84 3d 51 07 12 be 5d 4b 07 bd
       -0.03219074 0.06464807 -0.14260603 -0.033030856
000160 2e 92 c0 be d1 92 0a 3f 90 0e 9e be ff b1 b1 be
       -0.37611526 0.54130274 -0.30870485 -0.34706113
000170 5f c1 c9 3c 7e 61 4c 3c 9b 74 d1 3e b5 1b 94 bd
       0.02462834 0.012474416 0.40909275 -0.07231847
000180 ac da b2 3c f6 ad 46 bd 68 9f ac 3e c7 e1 1d be
       0.021832787 -0.048505746 0.33715367 -0.15418158
000190 7c ad 8c bf 44 bd 72 bf 1e ef e9 be 12 22 1b bf
       -1.0990443 -0.94820046 -0.45690244 -0.6059886
0001a0 cc b0 5d bf f6 a5 0a bf b1 51 ae 3d 65 30 07 bf
       -0.86597896 -0.54159486 0.08511675 -0.5280822
0001b0 06 f4 30 3e e2 31 12 3e 6d 7e 61 bf ff e8 54 3f
       0.17280588 0.14276841 -0.88083535 0.83168024
0001c0 e4 f9 df be 99 70 a6 bf 78 65 82 bf 9d 25 fc 3e
       -0.4374534 -1.3003112 -1.0187216 0.49247447
0001d0 7d d2 07 3f c7 7c 8b bf bb 78 c4 3d ae 6a 65 bd
       0.53055555 -1.0897454 0.0959334 -0.05600994
0001e0 a2 2a ab 3e 31 ed 0c bf cd e3 45 3d 76 83 d9 3e
       0.33430964 -0.55049425 0.04831295 0.4248311
0001f0 39 f5 0f 3f c3 06 1f 3e c8 4a 3b bf a6 71 b2 3e
       0.56233555 0.15529923 -0.7316098 0.34852332
000200 69 83 22 bf c0 27 84 bf a6 c2 8b bf 76 a7 b4 3e
       -0.63481766 -1.0324631 -1.0918777 0.35284013
000210 f1 ba b3 be 1c 28 27 bf 26 8e 9c 3d 27 36 62 bf
       -0.35103562 -0.6529558 0.076443 -0.8836388
000220 1b c2 f1 3d bf a7 d0 3b ea 65 d6 bd f3 dd a0 bf
       0.11804601 0.006367653 -0.10468657 -1.2567734
000230 10 b8 59 bf 33 8f ba bf c1 f5 87 bd 6d 63 45 bf
       -0.8504648 -1.4574951 -0.06638671 -0.77104837
000240 50 2a 3e bf 33 ce 86 be bf 2b 20 bf 49 5f e1 3e
       -0.74283314 -0.26329193 -0.6256675 0.4401801
000250 fc 22 48 bf 84 52 16 bf 43 d8 dd 3e 9c fa 51 bf
       -0.7817838 -0.5871966 0.43329057 -0.82023025
000260 6a 8e d9 3d 10 f6 25 bf 3a 94 2c 3f 59 41 c7 3b
       0.106228665 -0.64828587 0.67413676 0.006080788
000270 d1 86 1e bc 3b 38 2b be 11 8e 40 bd 55 59 40 bd
       -0.009675697 -0.16720669 -0.047010485 -0.046960194
000280 7d 18 ac 3e 40 c5 82 3c f8 b3 ae 3e b7 27 29 be
       0.33612433 0.015963197 0.3412168 -0.16519056
000290 9b 15 31 bf 29 fa 98 be 91 7e 4e 3d 93 01 1d bf
       -0.6917359 -0.29878357 0.050413672 -0.6133053
0002a0 07 6d 8c 3e e5 75 c9 3d a5 08 2e 3e d3 29 a9 3d
       0.2742693 0.0983694 0.16995485 0.082599305
0002b0 46 a9 0f bf fe e6 c4 be 95 59 14 bf b6 85 11 3f
       -0.56117666 -0.38457483 -0.5794919 0.5684465
0002c0 1e c7 15 be 77 82 df bd a4 a8 64 bd 33 ef d4 bd
       -0.14626738 -0.10913556 -0.05582489 -0.10397186
0002d0 14 a0 ee 3e 48 03 55 be 3e 50 20 be ba f4 a9 be
       0.46606505 -0.20802033 -0.1565561 -0.33194524
0002e0 0a af d2 be 5e 47 25 bf bd a3 a6 be 96 68 1a bf
       -0.4114917 -0.6456202 -0.32546797 -0.60315835
0002f0 a5 9c de 3c 59 ed f7 3e 2c b7 9f be 9f 9f 11 3b
       0.027174303 0.4842327 -0.31194437 0.0022220386
000300 07 4a b8 3d 97 43 3c be ad 49 a8 3e 82 0f 85 bf
       0.089984946 -0.18385158 0.3286871 -1.0395358
000310 97 b2 29 be af 56 96 be 67 d0 2a 3f 55 b5 7a bd
       -0.16572033 -0.2936301 0.66724247 -0.061208088
000320 61 0b b0 3e fc f1 a3 3e 56 b3 8d 3d a4 be cf 3e
       0.3438368 0.32020557 0.06918971 0.40575135
000330 07 70 51 be c8 f6 ae 3e a4 ad 6d be 25 ee b2 3e
       -0.20452891 0.34172654 -0.2321077 0.34947315
000340 5d 8f cb bd 4b e5 ce bd f4 c2 79 3e bf 75 97 3e
       -0.09939454 -0.10102328 0.24390775 0.2958202
000350 1d fb 9f be 77 aa b2 3c 64 10 a3 3d 2f 8b ec 3d
       -0.31246272 0.0218098 0.07962111 0.11549985
000360 f8 75 1c bf b7 d0 21 3f af 07 0d 3e 43 71 15 be
       -0.61117506 0.632091 0.13772462 -0.14593987
000370 3b 01 3b 3e c8 08 48 3e 92 28 c1 be d6 4e 3a bf
       0.18262188 0.195346 -0.37726265 -0.72776544
000380 65 b9 8e 3e 84 13 21 3e 72 48 05 3f b4 82 06 bf
       0.2787582 0.15730101 0.5206367 -0.5254319
000390 f3 c7 95 bd 25 a3 b6 3e 16 c0 19 3f 53 83 e3 be
       -0.07313528 0.35671344 0.60058725 -0.4443613
0003a0 ee 1a 8f be fd 20 bd 3e 71 a4 0d 3e 93 c2 e8 3e
       -0.27950233 0.3693923 0.1383226 0.45460948
0003b0 d0 62 ba 3e 3e d3 dc 3d 48 2f 78 3e 77 fe 04 3f
       0.36403513 0.10782479 0.24236786 0.5195078
0003c0 5b 41 77 3e c0 fc 23 3f 51 95 13 3e e2 9e 1b 3f
       0.24146025 0.6405754 0.14412428 0.6078931
0003d0 07 c5 85 3e 0f 8d 35 3e 5a a6 52 3e bd f8 5a be
       0.26126882 0.17729591 0.2057127 -0.21383949
0003e0 76 b0 03 3d 28 06 d5 3e a8 0d 03 bf 53 84 64 bd
       0.03215071 0.4160626 -0.5119271 -0.055790257
0003f0 82 03 c4 3e d4 1f c5 3e 1f 11 62 bf 54 ad 57 be
       0.38283926 0.38500845 -0.88307375 -0.21062213
